…
===========>.] - ETA: 0s170418176/170498071 [============================>.] - ETA: 0s170500096/170498071 [==============================] - 24s 0us/step
X_train shape: (50000, 32, 32, 3)
50000 train samples
10000 test samples
Model: "sequential"
_________________________________________________________________
Layer (type)                 Output Shape              Param #   
=================================================================
conv2d (Conv2D)              (None, 32, 32, 32)        896       
_________________________________________________________________
activation (Activation)      (None, 32, 32, 32)        0         
_________________________________________________________________
max_pooling2d (MaxPooling2D) (None, 16, 16, 32)        0         
_________________________________________________________________
dropout (Dropout)            (None, 16, 16, 32)        0         
_________________________________________________________________
flatten (Flatten)            (None, 8192)              0         
_________________________________________________________________
dense (Dense)                (None, 512)               4194816   
_________________________________________________________________
activation_1 (Activation)    (None, 512)               0         
_________________________________________________________________
dropout_1 (Dropout)          (None, 512)               0         
_________________________________________________________________
dense_1 (Dense)              (None, 10)                5130      
_________________________________________________________________
activation_2 (Activation)    (None, 10)                0         
=================================================================
Total params: 4,200,842
Trainable params: 4,200,842
Non-trainable params: 0
_________________________________________________________________
Epoch 1/20
  1/313 [..............................] - ETA: 0s - loss: 2.3515 - accuracy: 0.1094 
…
