X_train shape: (50000, 32, 32, 3)
50000 train samples
10000 test samples
Model: "sequential"
_________________________________________________________________
Layer (type)                 Output Shape              Param #   
=================================================================
conv2d (Conv2D)              (None, 32, 32, 32)        896       
_________________________________________________________________
activation (Activation)      (None, 32, 32, 32)        0         
_________________________________________________________________
conv2d_1 (Conv2D)            (None, 32, 32, 32)        9248      
_________________________________________________________________
activation_1 (Activation)    (None, 32, 32, 32)        0         
_________________________________________________________________
max_pooling2d (MaxPooling2D) (None, 16, 16, 32)        0         
_________________________________________________________________
dropout (Dropout)            (None, 16, 16, 32)        0         
_________________________________________________________________
conv2d_2 (Conv2D)            (None, 16, 16, 64)        18496     
_________________________________________________________________
activation_2 (Activation)    (None, 16, 16, 64)        0         
_________________________________________________________________
conv2d_3 (Conv2D)            (None, 5, 5, 64)          36928     
_________________________________________________________________
activation_3 (Activation)    (None, 5, 5, 64)          0         
_________________________________________________________________
max_pooling2d_1 (MaxPooling2 (None, 2, 2, 64)          0         
_________________________________________________________________
dropout_1 (Dropout)          (None, 2, 2, 64)          0         
_________________________________________________________________
flatten (Flatten)            (None, 256)               0         
_________________________________________________________________
dense (Dense)                (None, 512)               131584    
_________________________________________________________________
activation_4 (Activation)    (None, 512)               0         
_________________________________________________________________
dropout_2 (Dropout)          (None, 512)               0         
_________________________________________________________________
dense_1 (Dense)              (None, 10)                5130      
_________________________________________________________________
activation_5 (Activation)    (None, 10)                0         
=================================================================
Total params: 202,282
Trainable params: 202,282
Non-trainable params: 0
_________________________________________________________________
Epoch 1/40
  1/313 [..............................] - ETA: 0s - loss: 2.3012 - accuracy: 0.1172  2/3
…
